runs/train/weights/best.pt (torch, 740617 bytes, 12 tensors)

conv_layers.0.weight f4 [64, 12, 3, 3]
0	0xbeb9e324	-0.36306107
1	0xbeadd16b	-0.33948836
2	0xbe94b990	-0.29047823
3	0xbe92fc5c	-0.2870816
4	0xbeb9e8bc	-0.36310375
5	0xbe937ab7	-0.28804561
6	0xbebb665f	-0.3660154
7	0xbe981672	-0.29704624
8	0xbebd0b2b	-0.36922583
9	0xbd58a8d1	-0.05289537
10	0x3ccc7f00	0.024962902
11	0x3d73270b	0.059363406
12	0x3db48bc1	0.088157184
13	0x3cb107d2	0.021610174
14	0x3d6d42ae	0.05792492
15	0xbbab6393	-0.005230376
16	0x3dd3f0af	0.10348641
17	0xbd322c79	-0.043499444
18	0xbd3f8eb8	-0.046766967
19	0x3cd3d498	0.025858209
20	0xbd0893b5	-0.03334399
21	0xbcac5d00	-0.02104044
22	0x3c9f28dc	0.019428663
23	0xbd7ceba7	-0.061748173
24	0xbda9c225	-0.08288983
25	0x3bedb680	0.0072544217
26	0x3bfa1cc0	0.007632822
27	0x3d15a3c5	0.036533136
28	0x3c407328	0.011746205
29	0x3d10842f	0.03528231
30	0xbdb705ba	-0.08936639
31	0xbd33e377	-0.0439181
32	0xbdb92f03	-0.0904217
33	0xbbb79cc9	-0.005603407
34	0xbdb4a1db	-0.08819934
35	0xbd2c59fe	-0.04207801
36	0x3df55a4b	0.11980113
37	0x3ccc6e7d	0.024955029
38	0xbda09d80	-0.07842541
39	0x3dff74de	0.124734625
40	0x3ddb18e6	0.106981084
41	0xbc35f152	-0.0111048985
42	0x3d3d02db	0.0461453
43	0x3dd42292	0.10358156
44	0xbd891926	-0.0669425
45	0xbdcadfc0	-0.09905958
46	0xbd96f885	-0.0737162
47	0x3df3aa11	0.11897672
48	0xbcece6fe	-0.02891874
49	0x3d84d578	0.064860284
50	0x3d9480a9	0.072511025
51	0xbde28559	-0.1106059
52	0x3ddc4f63	0.10757329
53	0x3dd76d6e	0.10518919
54	0x3d932ce0	0.071862936
55	0xbcdfb14e	-0.027306225
56	0x3bcfee0f	0.0063455175
57	0x3d12388a	0.03569845
58	0x3d47eab1	0.048807804
59	0x3d03ecc2	0.03220821
60	0xbe154fe1	-0.14581253
61	0x3d8e3e1c	0.0694544
62	0xbd02afa8	-0.0319058
63	0x3d818e7e	0.06326006
64	0x3aacd5da	0.0013186291
65	0xbbe76b32	-0.007062339
66	0x3d1874af	0.037220653
67	0x3e09e349	0.13465609
68	0x3d4fc727	0.050727036
69	0xbce6fc88	-0.028196588
70	0x3db16888	0.08662516
71	0xbdbd89a4	-0.092547685
72	0xbcbf810b	-0.023376962
73	0x3d73ef92	0.059554644
74	0xbd5cedd3	-0.053937744
75	0xbd86ff00	-0.06591606
76	0x3d964ff9	0.07339472
77	0xbd71df0d	-0.05905061
78	0x3d13ed3c	0.036114916
79	0xbd2d82fa	-0.042361237
80	0x3d7767da	0.060401775
81	0xbd69df25	-0.057097573
82	0xbdbe5444	-0.09293416
83	0xbb874ac0	-0.004128784
84	0xbda5427a	-0.0806932
85	0x3d9e7352	0.07736839
86	0x3d2ba4c0	0.041905165
87	0xbd65d054	-0.05610688
88	0x3c8e761c	0.017390303
89	0xba5dce80	-0.0008461252
90	0xbc2b41f8	-0.01045274
91	0x3bb29ce0	0.00545083
92	0xb9e81900	-0.00044269115
93	0xbce6038c	-0.028077863
94	0xbd8d8a16	-0.069111034
95	0x3d59fbac	0.05321853
96	0xbd6dadf4	-0.058027223
97	0x3c789dc8	0.015174337
98	0x3d9e85ce	0.07740365
99	0xbcc3f594	-0.023920812
100	0xbd9eb7c8	-0.07749897
101	0xbd894930	-0.067034125
102	0x3d79f35c	0.0610231
103	0x3cda58c8	0.026653662
104	0x3d018fa4	0.031631127
105	0xbd0b5824	-0.034019604
106	0xbd23d5f7	-0.039998975
107	0x3d94c656	0.07264392
108	0xbeac42c3	-0.33644685
109	0xbead50db	-0.3385075
110	0xbe91ddc3	-0.28489503
111	0xbea1221c	-0.31471336
112	0xbe9ebade	-0.31001943
113	0xbe8e7de1	-0.27830413
114	0xbe6fa536	-0.23402867
115	0xbe8d5dba	-0.2761057
116	0xbe87c954	-0.2652079
117	0xbbb2aa55	-0.005452434
118	0x3d6dffad	0.05810516
119	0x3e01489e	0.12625358
120	0x3ba91b97	0.0051607597
121	0x3c7aeef4	0.01531576
122	0x3dc19585	0.09452347
123	0xbcda49ec	-0.026646577
124	0xbd99910c	-0.074983686
125	0x3d94a0ca	0.072572306
126	0x3bbd6420	0.005779758
127	0xbc6856f8	-0.014180891
128	0x3dbaad12	0.09115042
129	0x3c9f4a1c	0.019444518
130	0xbdb58c87	-0.08864694
131	0x3ca2dfc0	0.019882083
132	0x39270e00	0.00015931576
133	0x3d8c9b26	0.0686553
134	0xbdacaf7d	-0.08431909
135	0x3d911c8c	0.07085523
136	0xbdfccb5d	-0.12343476
137	0x3b35d21c	0.0027743643
138	0x3bb0d05c	0.005395932
139	0x3c14b94b	0.00907738
140	0xbc4a450e	-0.0123455655
141	0x3dd579a4	0.10423592
142	0xbb237448	-0.0024941135
143	0xbc4bed20	-0.012446672
144	0x3d26cb1a	0.040721036
145	0x3c12c8cb	0.008959006
146	0xbd7a2fca	-0.06108073
147	0xbd0a51ff	-0.033769604
148	0xbc622e3a	-0.013804967
149	0x3c808da4	0.01569254
150	0x3d799089	0.060928855
151	0x3c667d07	0.014067895
152	0xbd9e164a	-0.07719095
153	0x3d5090d1	0.050919358
154	0x3e0d764d	0.1381466
155	0x3d28c2a4	0.04120125
156	0xbdfd2224	-0.123600274
157	0x3e264df8	0.1624068
158	0x3c335dbf	0.010947644
159	0x3d180bb6	0.037120543
160	0x3cb1af09	0.021689909
161	0xbdb47c3e	-0.0881276
162	0xbcada117	-0.021194978
163	0x3dd4e4b9	0.10395188
164	0xbe2ebc5c	-0.17064041
165	0xbdc6720d	-0.09689722
166	0x3d8dcbd5	0.069236435
167	0x3df64257	0.12024372
168	0xbdfba446	-0.12287192
169	0xbcc1f1aa	-0.023674805
170	0x3db66886	0.08906655
171	0xbd7a5ca9	-0.061123524
172	0x3e0e9993	0.13925771
173	0xbca86bc0	-0.020559192
174	0xbd4120c6	-0.047150396
175	0x3e042a81	0.12906839
176	0xbdbdf0a0	-0.09274411
177	0x3d658635	0.056036193
178	0xbc49f1ed	-0.012325746
179	0x3d91909b	0.071076594
180	0x3c000b24	0.007815156
181	0xbdb0ec53	-0.08638825
182	0xbcc5a680	-0.024127245
183	0x3d0a2a58	0.03373179
184	0x3d4a0d3f	0.04932904
185	0xbca32984	-0.019917257
186	0xbd6eda06	-0.058313392
187	0x3cb3434d	0.021882677
188	0xbcf03434	-0.029321767
189	0x3b144cc0	0.0022628754
190	0xbda5fd7a	-0.081049874
191	0xbda3384c	-0.07969722
192	0x3d02a154	0.031892136
193	0xbd5fea99	-0.05466709
194	0x3af2b700	0.0018517673
195	0xbd933289	-0.07187373
196	0x3d6c6fd8	0.05772385
197	0xbd88dadc	-0.06682369
198	0x3d5ec1b8	0.054383963
199	0x3d0fdf20	0.035124898
200	0xbafef300	-0.0019451082
201	0x3d63f66c	0.055654928
202	0x3d8bda5c	0.06828758
203	0x3d9794d0	0.074014306
204	0x3d404368	0.046939284
205	0xbd5d9f35	-0.05410691
206	0xbda863d5	-0.082221664
207	0x3d14c19c	0.036317453
208	0xbda34cf2	-0.079736605
209	0xbda82696	-0.08210485
210	0xbd8c6b42	-0.06856395
211	0x3d80ad62	0.0628307
212	0xbd44b7cf	-0.048026856
213	0xbc7222f0	-0.014778838
214	0x3d7bfdbc	0.061521277
215	0xbd619d66	-0.055081747
216	0xbe82b62e	-0.25529617
217	0xbe90a78a	-0.28252822
218	0xbe7d3ae1	-0.24729492
219	0xbe6047a8	-0.21902335
220	0xbe4369af	-0.19083284
221	0xbe769167	-0.24078904
222	0xbe67175b	-0.22567503
223	0xbe64083a	-0.22268763
224	0xbe1d5ed4	-0.15368205
225	0xbcf22e4e	-0.029563095
226	0xbd11ee30	-0.035627544
227	0x3c93bd5f	0.018034635
228	0xbcde9216	-0.027169269
229	0x3da6bfb1	0.08142031
230	0xbd0bfd4d	-0.034177113
231	0xbd290e4e	-0.041273408
232	0xbc2b2c09	-0.0104475105
233	0x3d800283	0.06250479
234	0xbd4a4c23	-0.049389016
235	0x3d1b0264	0.037844077
236	0x3bc4f760	0.0060109347
237	0xbb719780	-0.0036863983
238	0x3c994404	0.01870919
239	0xbd86b79a	-0.06577988
240	0xbdbcc89a	-0.09217949
241	0x3d8833dc	0.066505164
242	0xbcb9e8d0	-0.022694021
243	0x3d9d884a	0.07692011
244	0xbd40ff9e	-0.047118776
245	0x3da6af5a	0.081389144
246	0x3c82e9e4	0.015980668
247	0x3dbad7ac	0.091231674
248	0xbda1dd0c	-0.079034895
249	0x3defbea8	0.11706287
250	0xbc92dc01	-0.017927172
251	0x3db83264	0.08993986
252	0x3d6f39fa	0.0584049
253	0xbd7c6f3c	-0.06162952
254	0xbd2427ec	-0.040077135
255	0xbc8a80f9	-0.016907202

conv_layers.0.bias f4 [64]
0	0x3c6e27f5	0.014535894
1	0x3c6fe86f	0.014642819
2	0x3c3c38d9	0.011488163
3	0xbb682621	-0.0035423117
4	0x3caa5222	0.020791117
5	0x3cb9373e	0.02260935
6	0x3c0d5a10	0.00862743
7	0x3c582c74	0.013194192
8	0x3b2359c0	0.0024925321
9	0x3bf48147	0.0074617
10	0x3ce3aacb	0.027791401
11	0x3ccde3b1	0.025132986
12	0x3c34d7d0	0.011037782
13	0x3bd0e612	0.006375083
14	0x3bf30a11	0.0074169715
15	0xb967af1e	-0.00022095113
16	0x3c0a0a66	0.008425331
17	0x3c1423b4	0.009041715
18	0x3cd24c8b	0.025671264
19	0xbbb14e95	-0.005410979
20	0x3c77c6f0	0.015123114
21	0x3cb7ec65	0.022451589
22	0x3b93065c	0.004486842
23	0x3d07a40e	0.03311544
24	0x3c3589f2	0.011080252
25	0x3d160430	0.036625087
26	0x3bcb5633	0.006205344
27	0x3c785b3c	0.015158471
28	0x3c9ad040	0.01889813
29	0x3c01b835	0.007917454
30	0x3d1d6174	0.038423017
31	0x3c3a8cce	0.0113861095
32	0x3c153792	0.009107487
33	0xbbda93d0	-0.0066704527
34	0x3c2917a0	0.010320574
35	0x3c14247b	0.009041901
36	0x3b99b1a7	0.0046903673
37	0x3d05e2dc	0.032687053
38	0x3c0900aa	0.008361975
39	0x3c51a638	0.012795977
40	0x3cf00305	0.029298315
41	0x3c080b27	0.00830344
42	0x3d07c4d9	0.033146713
43	0x3cdbc2eb	0.026826343
44	0x3c05cb4b	0.008166145
45	0x3bf2724b	0.0073988787
46	0x3ca28e90	0.01984337
47	0xbc2eef13	-0.010677117
48	0x3c8872d5	0.016656319
49	0x3ca316bf	0.019908307
50	0x3ce81b60	0.028333366
51	0x3acd3deb	0.0015658712
52	0x3d2633e6	0.040576838
53	0x3b803a6c	0.0039132144
54	0x3c120fdf	0.008914917
55	0x3c95a6ab	0.01826795
56	0x3c413e20	0.011794597
57	0x3ce3e795	0.027820388
58	0x3c927fbd	0.017883176
59	0x3d172a0e	0.03690534
60	0x3acf51f9	0.0015817276
61	0x3d3c2615	0.045934755
62	0x3d0cad25	0.03434481
63	0xba8b3dd9	-0.001062329

conv_layers.3.weight f4 [64, 64, 3, 3]
0	0x3da265d3	0.07929578
1	0x3d73c53b	0.059514266
2	0x3d3ee9f4	0.046609834
3	0xbcfca629	-0.03084095
4	0xbd3241d7	-0.04351982
5	0xbd343226	-0.043993138
6	0x3d377802	0.044792183
7	0x3cbfc800	0.023410797
8	0xbd7ca5b4	-0.061681464
9	0x3d816701	0.063184746
10	0x3dec45c4	0.11536744
11	0x3d6ef054	0.058334664
12	0xbd8be223	-0.068302415
13	0xbd4b8bb5	-0.049693782
14	0x3cf33a30	0.029690832
15	0xbc27d4d2	-0.010243611
16	0x3d404ae4	0.04694642
17	0x3c8e9186	0.017403375
18	0x3dc87fd8	0.09790009
19	0xbd0587b7	-0.03260013
20	0x3d6e731e	0.058215253
21	0xbc33c71b	-0.010972763
22	0x3da69b23	0.08135059
23	0xbd6d3461	-0.05791128
24	0x3d347a07	0.044061687
25	0xbd5dcc56	-0.054149948
26	0xbccb026d	-0.02478143
27	0x3cd2f4e1	0.025751533
28	0x3db3fd9c	0.087886065
29	0x3db27e21	0.087154634
30	0x3dc49df4	0.0960044
31	0xbc87cec3	-0.016578084
32	0x3cc9bfb6	0.024627548
33	0xbdc0c169	-0.0941189
34	0xbbadb333	-0.005300903
35	0x3d807dce	0.06273995
36	0x3c2e0416	0.010621091
37	0xbda15ab8	-0.07878631
38	0xbcf97cd6	-0.030455034
39	0x3e01d48c	0.12678736
40	0x3d812db7	0.063075475
41	0x392db95c	0.00016567617
42	0xbcf088a8	-0.029362038
43	0xbd3d59eb	-0.04622833
44	0xbbef9876	-0.007311876
45	0xbd2e8f5f	-0.042617198
46	0xbd9d6326	-0.07684927
47	0xbdedf9ca	-0.11619909
48	0x3df5b6c1	0.11997748
49	0x3d82231b	0.06354352
50	0x3c6ecd36	0.014575293
51	0x3cc76eb0	0.024344772
52	0x3d4a978e	0.04946094
53	0xbabf20c4	-0.0014581908
54	0x3d29f867	0.04149666
55	0x3d45ceee	0.048293047
56	0xbcb635d7	-0.02224247
57	0x3db15fef	0.08660876
58	0x3d9b5a43	0.075855754
59	0x3d87623f	0.06610536
60	0x3b962f78	0.0045832954
61	0xbb2b2ceb	-0.0026119302
62	0xbd3a1c30	-0.045437038
63	0x3db110a7	0.08645754
64	0xbc9b6992	-0.018971238
65	0x3b0d3a8c	0.002154979
66	0x3a95c7e0	0.0011427365
67	0xbda442f1	-0.080205806
68	0xbd272dab	-0.040815037
69	0x3d0d35c5	0.034475107
70	0xbc52e7b9	-0.01287263
71	0x3d37c5b6	0.044866286
72	0xbd8ceb12	-0.068807736
73	0x3d6f2359	0.05838332
74	0x3c90c4fe	0.017672058
75	0x3cd37065	0.02581043
76	0x3ca98fa8	0.020698383
77	0xbd2514af	-0.04030293
78	0xbdaa7e0a	-0.08324821
79	0xbc9cc554	-0.019137062
80	0xbd827d50	-0.06371558
81	0x3dd17e04	0.10229114
82	0x3d2cfa5e	0.042230956
83	0x3caed195	0.02134017
84	0xbddb5e23	-0.107113145
85	0x3daf6ed9	0.085660644
86	0x3d57aa42	0.052652605
87	0xbc0a3248	-0.00843484
88	0xbbf17cf0	-0.00736963
89	0xbd68671e	-0.056738965
90	0xbd05d135	-0.03267022
91	0x3d803552	0.0626017
92	0xbc9ed25f	-0.019387422
93	0x3e01f9ca	0.12692943
94	0x3cf61fee	0.030044522
95	0x3d70dd94	0.058805063
96	0xbd2ddb0f	-0.04244524
97	0x3acf3008	0.0015807161
98	0xbd8f6b44	-0.07002881
99	0xbd8f3cbc	-0.06994006
100	0xbc309de5	-0.0107798325
101	0xbd941d51	-0.07232154
102	0x3e038a9f	0.12845849
103	0xbd2df104	-0.04246618
104	0x3d9465e7	0.07245999
105	0xbd4b3fe6	-0.049621485
106	0xbc7479df	-0.014921634
107	0xbc5e13fe	-0.013554571
108	0x3dca4a6d	0.09877477
109	0xbca827bc	-0.02052676
110	0x3d926cbb	0.07149645
111	0x3cc07cf1	0.023497077
112	0xbd2fb734	-0.042899325
113	0xbb34591c	-0.0027518934
114	0xbd3f6aaf	-0.0467326
115	0xbd0f94c0	-0.03505397
116	0x3d1d0952	0.038338967
117	0xbd143e9b	-0.036192518
118	0x3d93ad2e	0.07210766
119	0xbc9f63c7	-0.019456757
120	0xbd873e45	-0.06603674
121	0xbd5da01a	-0.054107763
122	0xbd4c77ae	-0.049918823
123	0xbd3889c8	-0.045053273
124	0xbcc6a226	-0.02424724
125	0xbcac4cf6	-0.021032792
126	0xbc7aa3b5	-0.01529782
127	0xbcb694e0	-0.022287786
128	0xbb90d9d6	-0.0044204993
129	0x3d2c94dd	0.042134155
130	0x3d4516e1	0.048117522
131	0x3c960703	0.01831389
132	0x3b6f0fd0	0.003647793
133	0x3d50a3cd	0.050937463
134	0x3d309898	0.043114275
135	0x3da1e047	0.07904106
136	0x3bd43af8	0.006476756
137	0x3d90a62b	0.07062944
138	0xbdbe72fc	-0.09299275
139	0x3b9a1012	0.0047016228
140	0xbd0fb99e	-0.035089128
141	0x3d4f3e2f	0.050596412
142	0xbcb54e01	-0.022131922
143	0xbb13188f	-0.0022445058
144	0xbd2f2dcb	-0.04276828
145	0xbd0f59d2	-0.03499777
146	0x3da57ef2	0.080808535
147	0xbcf65562	-0.03007001
148	0xbd4f41d9	-0.050599907
149	0xbc341ed2	-0.010993676
150	0xbd9f6d18	-0.0778448
151	0xbd137642	-0.03600145
152	0x3b1f7f7d	0.0024337464
153	0x3d541315	0.05177601
154	0xbc7a4a13	-0.01527645
155	0x3cd6a917	0.026203675
156	0xbd73f9dc	-0.059564456
157	0x3d229307	0.039690997
158	0x3d4db335	0.050219733
159	0xbdb69a0e	-0.08916102
160	0xbd9f2a2f	-0.07771718
161	0x3d1e7a38	0.038690776
162	0x3d6270fc	0.05528353
163	0x3d026c4a	0.031841554
164	0x3e11f29a	0.14252701
165	0xbdcfcca0	-0.10146451
166	0xbd7ec10f	-0.062195834
167	0xbc20b280	-0.009808183
168	0xbcbcd753	-0.023051893
169	0xbdc62abe	-0.09676121
170	0xbd88b67d	-0.06675432
171	0x3c2e1475	0.0106249945
172	0x3d650928	0.055916935
173	0xbd00f283	-0.031481277
174	0x3d99501a	0.07485981
175	0xbc9276cd	-0.017878914
176	0xbd865cca	-0.06560667
177	0x39f427dc	0.00046569004
178	0xbd9e5fdb	-0.07733127
179	0x3d153536	0.0364277
180	0x3cbf0d71	0.023321839
181	0xbd049e08	-0.032377273
182	0x3d68f862	0.0568775
183	0xbd2cacd1	-0.042156998
184	0xbda813a4	-0.08206871
185	0x3d32af36	0.043624125
186	0xbcdaa3ea	-0.026689488
187	0x3d1a75bd	0.03770994
188	0xbd5aff18	-0.053465933
189	0xbcc45a26	-0.023968767
190	0xbdcd5e22	-0.1002772
191	0xbd5e5202	-0.054277427
192	0x3d26fc76	0.04076811
193	0x3c1ec9d0	0.009691671
194	0x3d750854	0.059822395
195	0xbd290b4b	-0.041270535
196	0x3ba44d77	0.0050141173
197	0xbd1ee015	-0.03878792
198	0x3cb73bb1	0.02236733
199	0x3d0c7dcd	0.03429966
200	0xbbf0b938	-0.0073462985
201	0x3bebff01	0.0072020297
202	0x3ccb3316	0.024804633
203	0xbb2a1cd3	-0.0025957122
204	0xbcc4cbed	-0.02402302
205	0xbdc2ef93	-0.095183514
206	0xbc73140e	-0.014836324
207	0x3d22da1b	0.039758783
208	0xbc1b7ab4	-0.009489704
209	0x3d9b7401	0.07590485
210	0x3d25308f	0.040329512
211	0xbc85af4e	-0.016318943
212	0xbb90ffce	-0.0044250255
213	0xbcb3420a	-0.021882076
214	0xbc86b04b	-0.016441485
215	0x3d87269e	0.065991625
216	0x3cc3a7f7	0.023883803
217	0x3d790ce0	0.060803294
218	0x3d39b880	0.04534197
219	0x3da7f439	0.08200879
220	0xbccab7fe	-0.024745937
221	0xbd22823e	-0.03967499
222	0xbdacb5f7	-0.084331445
223	0xbc6b90ef	-0.014377817
224	0x3d7867ce	0.06064587
225	0xbcd24a26	-0.025670122
226	0x3d0114c3	0.03151394
227	0x3d9ee3e5	0.07758311
228	0x3cb1aa48	0.021687642
229	0x3d7ae93e	0.061257593
230	0xbcbe6495	-0.02324132
231	0x3cf513a0	0.029916584
232	0xbc42c059	-0.01188668
233	0x3d3baa1e	0.045816533
234	0x3c559df7	0.01303815
235	0x3d385fcc	0.045013234
236	0x3dccf592	0.10007776
237	0xbc842782	-0.01613212
238	0xbd2cfdb5	-0.04223414
239	0xbdaffa4d	-0.08592663
240	0x3ca33c1b	0.019926121
241	0xbdbcfcfd	-0.09227941
242	0x3d94ce9a	0.072659686
243	0xbb45e5f6	-0.0030196882
244	0x3c04cfe4	0.008106206
245	0xbd5e23d6	-0.054233395
246	0xbd5e8e8a	-0.054335155
247	0x3d854287	0.0650683
248	0x3c55209a	0.013008261
249	0xbdb23d54	-0.08703104
250	0x3bd722ef	0.0065654437
251	0x3ce77185	0.028252373
252	0xbd60c504	-0.05487539
253	0x3ca85bdd	0.020551616
254	0xbbb6bf10	-0.0055769756
255	0x3cc0f3dd	0.023553783

conv_layers.3.bias f4 [64]
0	0xbc18a91a	-0.009317661
1	0xba6b1edd	-0.00089691376
2	0xbc48baa1	-0.012251527
3	0xbb9e9432	-0.0048394436
4	0x3c511666	0.012761688
5	0xbc3a183e	-0.011358319
6	0xbab31cf3	-0.0013665244
7	0xbc173bca	-0.009230563
8	0x3c5cb3e8	0.013470627
9	0xbc098fc8	-0.0083960965
10	0x3c42f29f	0.011898666
11	0x3c0693ce	0.00821395
12	0x3a24abb6	0.00062816904
13	0x3abdf3f5	0.001449226
14	0x3cb83955	0.022488276
15	0xbb7ebaa3	-0.0038868568
16	0x3b724d95	0.0036972512
17	0x3b2b44b6	0.0026133484
18	0xbbff5d73	-0.0077931224
19	0xbbed4601	-0.007241011
20	0x3c18158c	0.009282481
21	0xbb27fb2a	-0.0025631883
22	0xbbf9f777	-0.007628377
23	0x3c1c5379	0.009541386
24	0xbc141621	-0.009038479
25	0xbbb7236d	-0.00558894
26	0xbc36ce15	-0.011157532
27	0xbc349cb8	-0.011023693
28	0xbb8b4656	-0.004250328
29	0x3ca5b337	0.020227058
30	0xbc4190b1	-0.011814282
31	0xbb1f36c5	-0.002429412
32	0x3b5f272f	0.0034050455
33	0xbc020408	-0.007935531
34	0xbc064a3f	-0.008196413
35	0xbc38594e	-0.011251761
36	0x3c17c02a	0.009262124
37	0x3b9f32be	0.004858344
38	0x3ade9030	0.0016980227
39	0xbbadfab0	-0.0053094253
40	0x3c08cf49	0.008350202
41	0x3c67f20a	0.014156828
42	0xbc674e7c	-0.014117833
43	0x3b9a9aac	0.0047181454
44	0x3926472f	0.00015857512
45	0x3b06970d	0.002053681
46	0x3ca949dc	0.020665102
47	0xbc16cc65	-0.009204005
48	0xbc3c2b9f	-0.011485009
49	0x3bc285ba	0.0059363516
50	0x3b92b243	0.004476817
51	0x3a9c9ec0	0.0011949167
52	0xbc2198fb	-0.009863134
53	0x3b2a531a	0.0025989474
54	0x36d2f6ea	6.2872323e-06
55	0xbbf1864b	-0.0073707453
56	0xbb8fcdef	-0.004388563
57	0xbb7557a5	-0.0037436273
58	0xba8155e0	-0.0009867512
59	0x3c623bd1	0.013808207
60	0xbc04f536	-0.0081151035
61	0xbca237ae	-0.01980194
62	0x3c16027a	0.009155864
63	0xbc57e0c3	-0.013176146

conv_layers.6.weight f4 [64, 64, 3, 3]
0	0x3d9b220f	0.075748555
1	0x3d63c8d3	0.055611443
2	0x3d43ee5e	0.047834747
3	0xbc9236a1	-0.017848315
4	0x3c8f24d4	0.017473616
5	0xbd3995a3	-0.04530872
6	0xbcca5e50	-0.024703175
7	0xbd9fa7af	-0.07795655
8	0xbd1bcf0d	-0.038039256
9	0x3d9196d8	0.07108849
10	0x3d6bc7c6	0.057563566
11	0xbc9edf9e	-0.019393738
12	0x3dbabbca	0.09117849
13	0x3c3bbf86	0.011459237
14	0x3da64191	0.081179745
15	0x3cd647be	0.026157256
16	0xbcc29e25	-0.02375705
17	0x3d4c4b4e	0.049876504
18	0xbd18f48d	-0.037342597
19	0x3d66be16	0.056333624
20	0x3d9fe573	0.07807436
21	0x3d7ad03b	0.06123374
22	0x3d4b59f9	0.04964635
23	0xbc3aee85	-0.011409407
24	0x3da6f41c	0.08152029
25	0x3da01cad	0.078179695
26	0x3d80d412	0.06290449
27	0x3c5d4dd0	0.0135073215
28	0x3d834ecf	0.06411516
29	0x3d32bd8b	0.043637794
30	0xbcc82bf2	-0.024435017
31	0x3cfbfa82	0.0307591
32	0x3c5f13b8	0.013615541
33	0x3d838fee	0.06423937
34	0xbd13387f	-0.03594255
35	0xbcbd7c81	-0.023130657
36	0x3bf6639b	0.007519198
37	0x3c12de29	0.0089641
38	0xbd4bb9c4	-0.049737707
39	0xbd9b6ce5	-0.07589129
40	0xbd8e1ce1	-0.06939102
41	0xbd98713d	-0.074434735
42	0x3d55a517	0.052159395
43	0xbd81cc7e	-0.06337832
44	0xbdef6fb6	-0.11691229
45	0xbd129075	-0.035782296
46	0xbcb26e21	-0.02178103
47	0xbd8dbac1	-0.06920386
48	0xbc0f3b79	-0.008742207
49	0x3c864993	0.016392505
50	0xbbbe32d3	-0.0058043986
51	0xbd9e3816	-0.07725541
52	0x3d00d659	0.031454418
53	0xbb4a02a2	-0.0030824323
54	0xbce2bb64	-0.027677245
55	0xbd9c4ac4	-0.07631448
56	0xbd3c959b	-0.046041112
57	0xbd34e31a	-0.044161893
58	0xbcdd66c5	-0.027026543
59	0xbd27b86e	-0.04094737
60	0xbd57d96d	-0.052697588
61	0x3c850fa8	0.016242817
62	0x3d77dbc8	0.060512334
63	0x3d6e8bd4	0.05823882
64	0x3d5f2b8d	0.054484893
65	0xbcc0b177	-0.023522122
66	0x3cd85c87	0.026411308
67	0x3d0cb36d	0.0343508
68	0x3dbee1ae	0.09320389
69	0x3c859f2c	0.01631125
70	0x3c0f92a7	0.008762992
71	0xbb261053	-0.002533932
72	0x3d35426a	0.04425279
73	0xbd8ad8cb	-0.06779631
74	0xbd996118	-0.07489222
75	0xbcc61afc	-0.024182789
76	0x3d0b5f25	0.034026284
77	0xbdb8b397	-0.09018629
78	0xbcdb23ca	-0.026750464
79	0x3bb1564f	0.0054119
80	0xbd87721f	-0.06613564
81	0x3de2fab3	0.11082973
82	0x3ca748dd	0.020420486
83	0x3c912ece	0.017722514
84	0x3db5bf92	0.0887443
85	0x3dcd2350	0.10016501
86	0x3daa1780	0.083052635
87	0x3b13935e	0.0022518258
88	0x3dccb808	0.09996039
89	0x3df2d52a	0.11857064
90	0xbd40f0e2	-0.047104724
91	0x3c1b36c0	0.009473503
92	0xbd9335e3	-0.071880125
93	0xbd3266e0	-0.04355514
94	0x3d221074	0.039566472
95	0xbc508794	-0.012727637
96	0x3b9e15b6	0.0048243655
97	0x3cdfdd64	0.027327247
98	0xbd9cf51c	-0.076639384
99	0xbb708701	-0.0036701562
100	0xbd640b64	-0.055674925
101	0xbdb12a10	-0.08650601
102	0xbd8ae7e8	-0.06782514
103	0xbd49ec0b	-0.049297374
104	0xbd26a907	-0.04068854
105	0x3c8adfbd	0.01695239
106	0xbd852251	-0.06500686
107	0xbdb0a75d	-0.08625672
108	0xbd746ab1	-0.05967206
109	0x3cd32aec	0.025777303
110	0xbcce8025	-0.025207588
111	0x3c775692	0.015096324
112	0xbd87ed6a	-0.0663708
113	0xbd8160ee	-0.06317316
114	0xbc5eb663	-0.013593289
115	0xbd8df352	-0.06931175
116	0xbd4b3cca	-0.04961852
117	0x3d23c8ef	0.039986547
118	0xbd35e0c7	-0.044403818
119	0x3d3e0784	0.046393886
120	0x3d318357	0.043338146
121	0xbd0d57a2	-0.0345074
122	0x3d62a491	0.055332724
123	0xbcefd58b	-0.02927663
124	0xbd094ec6	-0.03352239
125	0xbd025a3d	-0.03182434
126	0xbdfbf39e	-0.12302326
127	0xbdcbe784	-0.099562675
128	0xbd90c7c1	-0.0706935
129	0xbdf9f5c4	-0.12205079
130	0xbda6d270	-0.081456065
131	0x3c094c69	0.008380034
132	0xbd413600	-0.04717064
133	0x3c641b84	0.013922576
134	0x3d56bd87	0.05242684
135	0xbc51f310	-0.012814298
136	0x3cd5ace4	0.026083417
137	0x3d16b648	0.03679493
138	0x3ccf2471	0.025285931
139	0x3d8aee91	0.06783784
140	0x3db1aef6	0.08675949
141	0x3cb97d66	0.022642802
142	0x3db7aeb7	0.08968871
143	0x3c966469	0.018358426
144	0xbd1ab496	-0.037769876
145	0x3da274f4	0.07932463
146	0xbbec150a	-0.0072046565
147	0x3d3c7e51	0.046018902
148	0xbd1e85ca	-0.03870181
149	0x3da818ac	0.08207831
150	0xbd41a7ee	-0.04727929
151	0x3dad4f06	0.08462338
152	0x3d4796c0	0.04872775
153	0x3aed0df8	0.0018085828
154	0x3b3d3237	0.0028869042
155	0x3ce457ff	0.027873991
156	0x3d3214a2	0.04347671
157	0x3c4be35c	0.012444343
158	0xbcc5005a	-0.02404802
159	0x3d8970d1	0.06710971
160	0x3dd2b159	0.10287733
161	0xbbc5e2b0	-0.006038986
162	0xbcf708ab	-0.0301555
163	0x3ceb6da2	0.0287388
164	0xbd01c320	-0.031680226
165	0x3cbea25d	0.02327078
166	0x3d6f9259	0.058489177
167	0x3c23fa0b	0.010008345
168	0xbdc8a573	-0.09797182
169	0x3d8251ca	0.06363256
170	0xba9361c1	-0.0011244343
171	0x3b523577	0.0032075325
172	0xbbece306	-0.0072292117
173	0x3c9cf3ab	0.019159159
174	0x3d8abec3	0.06774666
175	0xbc8e17e5	-0.017345378
176	0x3dd3dd30	0.103449225
177	0xbd0ec827	-0.03485885
178	0x3b4f0c7b	0.0031593132
179	0x3d77f586	0.060536884
180	0xbd849613	-0.06473937
181	0x3c9717fe	0.018444058
182	0x3c5900c5	0.013244812
183	0xbd954a23	-0.07289531
184	0x3be74718	0.0070580356
185	0x3d45ff7c	0.048339352
186	0xbd762230	-0.060091197
187	0xbd958990	-0.073016286
188	0xbd463cd2	-0.048397847
189	0x3ddee22f	0.10882985
190	0x3cc96c3b	0.024587741
191	0xbd91e8f8	-0.071245134
192	0x3dd5eb14	0.10445228
193	0x3da813a3	0.082068704
194	0x3d748f19	0.05970678
195	0x3d1d7900	0.038445473
196	0xbc977fee	-0.018493619
197	0xbd3f22c1	-0.046664003
198	0x3d1dea3b	0.038553458
199	0x3db6812d	0.08911357
200	0xbc75d141	-0.015003503
201	0x3dccf701	0.1000805
202	0x3d5caa75	0.053873498
203	0x3e0227ad	0.12710448
204	0x3dabee06	0.08395009
205	0x3d7a3bfa	0.061092354
206	0x3d8fe80b	0.070266806
207	0xbd1a4156	-0.037659965
208	0x3ca06c4c	0.01958289
209	0x3baedc50	0.005336322
210	0x3d9c001b	0.076172076
211	0xbc85eaa6	-0.01634724
212	0x3de7020a	0.11279686
213	0xbc69faa8	-0.0142809525
214	0x3d554792	0.052070208
215	0xbd9072d9	-0.070531555
216	0x3d0a4aa4	0.03376259
217	0xbd021def	-0.03176683
218	0x3e05d39f	0.13069008
219	0xbb885d6c	-0.0041615274
220	0x3be5cd42	0.007012994
221	0xbba8b5de	-0.0051486334
222	0x3c74c769	0.014940121
223	0x3dbcc7dc	0.09217808
224	0x3d71807c	0.058960423
225	0x3d019a57	0.03164133
226	0xbd0d37e1	-0.03447712
227	0x3c9fd506	0.019510757
228	0xbd404a33	-0.046945762
229	0xbc5808de	-0.013185708
230	0x3d8a9785	0.06767181
231	0xbc384c91	-0.011248724
232	0xbcb20eac	-0.021735512
233	0x3dc13264	0.094334394
234	0xbd04a250	-0.032381356
235	0x3d7481c9	0.059694085
236	0x3ce9f54d	0.028559351
237	0xbd5f9f54	-0.054595307
238	0xbd0f3c05	-0.03496935
239	0x3d0aa222	0.03384603
240	0xbd03d8ca	-0.032189168
241	0xbc851c47	-0.016248835
242	0x3dc6e790	0.09712136
243	0x3d54dff8	0.051971406
244	0x3dbd4f2b	0.09243616
245	0x3db2b20c	0.08725366
246	0x3cdaf461	0.026727857
247	0xbca7d801	-0.02048874
248	0x3da389f8	0.079853
249	0x3d8dc3e7	0.06922131
250	0xbd89f0d1	-0.06735385
251	0xbd273a9a	-0.04082737
252	0x3d91a1c6	0.07110934
253	0x3bbe1f89	0.005802099
254	0xbd4493e6	-0.04799261
255	0xbc530173	-0.0128787635

conv_layers.6.bias f4 [64]
0	0x3987952c	0.00025860348
1	0xbacadb8c	-0.0015476807
2	0x3b8ededa	0.004360062
3	0x3c4d391a	0.012525821
4	0xbad65b79	-0.0016354165
5	0x3bdb461c	0.0066917073
6	0xbb57876a	-0.003288711
7	0x3a8e981a	0.001087907
8	0xbbb1dc7f	-0.0054278965
9	0x3ca60d79	0.020270096
10	0xbc782e13	-0.015147704
11	0xbbe5183c	-0.0069914144
12	0x3c2ce3f8	0.010552399
13	0x3ba5d5ad	0.0050608725
14	0x3c2bed64	0.01049361
15	0x3ccdbfd2	0.025115881
16	0x3c0127e0	0.007883042
17	0xbbd49602	-0.006487609
18	0xbb265b7e	-0.0025384123
19	0xbc376bb1	-0.011195109
20	0x3c45579f	0.012044816
21	0x3c49fec3	0.012328806
22	0x3c44a66f	0.0120025715
23	0x3b36f7ae	0.0027918625
24	0x38c3a482	9.3289666e-05
25	0xbbc80a44	-0.0061047394
26	0x3c7e9b59	0.015539967
27	0x3bfea086	0.0077706007
28	0xbb5871fa	-0.003302692
29	0xbc186fc7	-0.009303994
30	0x3c7b0cfc	0.01532292
31	0xbb698fd1	-0.00356387
32	0xbbe065f7	-0.0068480927
33	0x3c44dc4b	0.012015413
34	0xba06cc3b	-0.0005142127
35	0x3985cfca	0.00025522552
36	0xbbeb5b9c	-0.0071825515
37	0xbaa2cdfd	-0.0012421008
38	0x3c63f28a	0.013912806
39	0x3bd4865c	0.0064857434
40	0x3c788e12	0.015170591
41	0xbbee1e09	-0.007266764
42	0xbb19770a	-0.00234169
43	0x3c107dd5	0.008819063
44	0xbbd64b7f	-0.0065397616
45	0xbc17ce44	-0.009265486
46	0xbbe64d48	-0.0070282556
47	0x3a45073b	0.0007516031
48	0x3c13a1cb	0.009010742
49	0xbaf148fa	-0.001840859
50	0xb9b2d6e8	-0.00034110923
51	0x3c8c5fb9	0.017135488
52	0x3cbb2ac7	0.022847546
53	0xbbdefe38	-0.0068052076
54	0x3c847778	0.016170248
55	0xbc01a39f	-0.007912545
56	0xbc5b4b71	-0.013384686
57	0x3bc92a93	0.0061391084
58	0xbb280a4a	-0.0025640898
59	0x3b860d70	0.0040909573
60	0x3c9a6f80	0.018851995
61	0xbb0bde17	-0.0021342093
62	0x3ce85b5e	0.02836388
63	0xbba1e2fe	-0.0049403897

fc_layers.0.weight f4 [256, 64]
0	0x3d25c81c	0.040474042
1	0x3beaa6f9	0.007161018
2	0x3d485045	0.048904676
3	0x3e5b69a4	0.21427017
4	0xbdd62fbc	-0.10458323
5	0xbcc0d10a	-0.023537178
6	0xbdb16f0f	-0.08663761
7	0xbd95652d	-0.072946884
8	0x3cfac916	0.030613463
9	0x3dc34ebf	0.09536504
10	0xbe21b82a	-0.1579291
11	0xbe132e1c	-0.14373058
12	0xbd8ff579	-0.07029242
13	0xbdd0e4ea	-0.10199912
14	0xbceebaff	-0.029141901
15	0xbc49b712	-0.012311714
16	0xbdc2c28f	-0.09509765
17	0x3bc9f0c2	0.006162734
18	0xbcb94fde	-0.022621091
19	0xbe56ae8c	-0.20965022
20	0x3e097456	0.13423285
21	0x3db24d37	0.08706134
22	0x3e1b2e5d	0.15154405
23	0x3c6181c8	0.013763852
24	0xbb271d5a	-0.0025499673
25	0xbd9adf88	-0.075621665
26	0x3e1276a8	0.14303076
27	0x3dc8e8a3	0.09809997
28	0xbe0adf09	-0.13561644
29	0x3d58fe4e	0.0529769
30	0x3da54ccb	0.08071288
31	0x3d499248	0.04921177
32	0xbe57d907	-0.21078883
33	0xbd7168dc	-0.058937892
34	0x3c4e91c2	0.012607994
35	0xbd276347	-0.040866163
36	0xbe5543fe	-0.20826718
37	0x3df1385e	0.11778329
38	0x3e011d19	0.12608756
39	0xbdb8b6e1	-0.090192564
40	0x3dbd9431	0.09256781
41	0x3dc54914	0.09633079
42	0x3de6576a	0.11247142
43	0x3c14d495	0.009083887
44	0x3db34fd7	0.087554626
45	0xbdf31bef	-0.11870562
46	0xbdfeab2d	-0.12434993
47	0xbc1ac7f9	-0.009447091
48	0x3d935bb7	0.071952276
49	0xbddf4790	-0.10902321
50	0xbe01f7c7	-0.12692176
51	0x3e867bb0	0.2626624
52	0x3e262d6f	0.16228269
53	0xbe4565ab	-0.19277065
54	0x3e8664bb	0.26248726
55	0x3d0a842e	0.033817463
56	0x3dc0a370	0.09406173
57	0xbd91aaff	-0.07112693
58	0xbe10f32e	-0.14155266
59	0xbcbb4202	-0.022858623
60	0x3e0c7c65	0.13719328
61	0xbdb5b682	-0.08872701
62	0x3e13cc9d	0.14433523
63	0xbbf008d8	-0.007325273
64	0x3e1cba07	0.15305339
65	0xbd49097b	-0.049081307
66	0x3e2bb9c8	0.16770089
67	0x3d432808	0.0476456
68	0x3c7eda2d	0.015554947
69	0xbe1499b9	-0.14511766
70	0x3d7ac5e6	0.061223887
71	0xbdd6c6cb	-0.104871355
72	0x3cfb8e6c	0.03070756
73	0xbe4589f3	-0.19290905
74	0x3d9198bb	0.07109209
75	0x3db3aaf9	0.08772845
76	0xbdd834f9	-0.10556979
77	0x3de0f93d	0.109850384
78	0x3d9da623	0.07697704
79	0x3c74eab3	0.014948535
80	0xbce6152d	-0.02808627
81	0x3e00282e	0.12515327
82	0x3c864367	0.016389562
83	0x3e02630b	0.12733094
84	0xbe15dbc0	-0.14634609
85	0x3d0b956f	0.034078058
86	0xbd762c07	-0.06010058
87	0x3e09056f	0.13380979
88	0x3e48cea1	0.19610073
89	0x3c383854	0.011243898
90	0xbd3484d0	-0.044071972
91	0x3ab9e2b9	0.0014181948
92	0xbd1c3ff0	-0.038146913
93	0x3db64c01	0.08901215
94	0xbcc8100e	-0.024421718
95	0x3e2783f4	0.1635893
96	0xbc86bb8e	-0.016446855
97	0x3ab0655a	0.001345794
98	0xbd7d93d9	-0.061908577
99	0xbddec160	-0.10876727
100	0x3dd5f5fe	0.1044731
101	0x3c4aa176	0.012367597
102	0xbd5dd954	-0.05416234
103	0xbb677548	-0.0035317708
104	0xbda61f12	-0.08111395
105	0xbc8fd3f7	-0.017557127
106	0xbd98ffba	-0.07470651
107	0xbdd2e772	-0.10298051
108	0x3e2c3268	0.16816103
109	0x3d1db21b	0.038499933
110	0x3daa995b	0.083300315
111	0x3d36aa34	0.044595912
112	0xbe1a5981	-0.15073206
113	0x3cbe60c6	0.023239505
114	0x3da5e64a	0.08100565
115	0xbe5b3279	-0.21405973
116	0x3be4f0fa	0.0069867345
117	0xbbbf0942	-0.005829961
118	0x3d124261	0.035707835
119	0x3dadf797	0.0849449
120	0x3d8fbaaa	0.07018025
121	0xbd66da3b	-0.056360465
122	0x3dd1e6fe	0.102491364
123	0xbb1a2d15	-0.0023525406
124	0xbe0b90cc	-0.13629454
125	0x3e27f1e4	0.16400868
126	0xbe019e3f	-0.12658022
127	0xbd732602	-0.05936242
128	0x3dab8beb	0.083762966
129	0x3da06026	0.07830839
130	0x3dc9cf2d	0.09853969
131	0x3afd2f7b	0.0019316518
132	0x3dd223a7	0.102607064
133	0xbe39f021	-0.18158008
134	0x3e095bf7	0.13413988
135	0xbe04ef11	-0.12981822
136	0x3d9c9811	0.07646192
137	0x3d727815	0.05919655
138	0x3e315290	0.17316651
139	0x3df23ff9	0.11828608
140	0x3d16f179	0.03685138
141	0xbe036b6d	-0.12833948
142	0xbd7abb5a	-0.06121383
143	0xbd06a290	-0.032869875
144	0x3e252b3a	0.16129771
145	0x3e075699	0.13216628
146	0xbd142503	-0.03616811
147	0xbd8907d4	-0.06690946
148	0xbe081a08	-0.1329118
149	0x3dcf4d79	0.101221986
150	0x3d1e52f1	0.038653318
151	0x3d8910e1	0.066926725
152	0x3e2c1aa8	0.16807044
153	0xbd11d7e0	-0.035606265
154	0x3dee68b1	0.11641062
155	0xbe1c5845	-0.15268047
156	0x3d99da05	0.07512287
157	0x3e00058b	0.12502114
158	0xbdb91ccd	-0.090386964
159	0x3e2bdcc2	0.16783431
160	0x3e41a708	0.18911374
161	0x3dbcf0b0	0.09225595
162	0x3e111d2e	0.14171287
163	0x3d9a0033	0.07519569
164	0xbd05cf0b	-0.032668155
165	0xbda81b5b	-0.08208343
166	0xbdfa3870	-0.12217796
167	0x3d190edf	0.037367698
168	0xbe166906	-0.14688501
169	0xbdcfa9ce	-0.101398095
170	0x3c6e003a	0.014526421
171	0x3bf7740f	0.007551677
172	0x3c60256b	0.013680796
173	0xbdd3ad6f	-0.10335814
174	0x3df208b9	0.1181807
175	0x3c32d665	0.010915373
176	0x3dd84684	0.10560325
177	0x3e0e2167	0.1387993
178	0xbc638b89	-0.013888248
179	0xbe23fd6b	-0.1601464
180	0xbe28e526	-0.16493663
181	0x3e485bac	0.1956622
182	0x3b9af33c	0.004728703
183	0xbd86e86d	-0.065873004
184	0xbe254662	-0.1614013
185	0xbd185145	-0.03718688
186	0x3d96ee41	0.07369662
187	0xbe1737f6	-0.14767441
188	0x3dae8914	0.08522239
189	0x3d16d621	0.036825303
190	0xbe53084f	-0.20608638
191	0xbe12255b	-0.14272062
192	0xbd976de2	-0.07394005
193	0xbdb442c2	-0.088017955
194	0x3d0e4ce5	0.0347413
195	0x3db91edd	0.0903909
196	0x3dbd11d3	0.09231915
197	0x3dc794af	0.09745156
198	0xbe038875	-0.12845023
199	0x3d39a7df	0.04532611
200	0x3d94cd5c	0.07265732
201	0x3e417566	0.1889244
202	0xbe46c437	-0.19410788
203	0xbddaf345	-0.10690931
204	0x3cc1cb13	0.023656404
205	0x3d7bf070	0.061508596
206	0x3e0c0dcf	0.13677143
207	0x3e5123df	0.2042384
208	0x3dc63ae2	0.096792
209	0x3cb49f1d	0.022048527
210	0xbbe18fc9	-0.0068835956
211	0xbdcd0fdd	-0.10012791
212	0x3e0926fc	0.13393778
213	0x3c262f8d	0.010143173
214	0x3da86e23	0.08224132
215	0xbd830196	-0.06396787
216	0xbda2da00	-0.079517365
217	0xbe2202c9	-0.15821375
218	0x3d60841c	0.05481349
219	0x3d0f5e25	0.035001893
220	0xbe118033	-0.1420906
221	0xbe36ac95	-0.17839272
222	0xbd30aaca	-0.043131627
223	0xbd9ca55f	-0.076487295
224	0x3ca14932	0.019688223
225	0x3deba1d1	0.115054734
226	0x3b38b283	0.0028182573
227	0xbdd251e2	-0.10269524
228	0xbd548e68	-0.05189362
229	0x3cf8da6a	0.030377585
230	0xbdafe485	-0.085885085
231	0x3debe5a5	0.115184106
232	0x3e1dd7d4	0.15414363
233	0xbd94a631	-0.07258261
234	0xbd46cd0a	-0.048535384
235	0x3d8292e6	0.06375675
236	0xbd616d87	-0.055036094
237	0xbcfd75a7	-0.03093989
238	0xbdfeb4f9	-0.124368615
239	0xbca6adca	-0.020346541
240	0xbc7150a6	-0.014728701
241	0xbd009856	-0.03139528
242	0xbe182852	-0.14859131
243	0x3d859f17	0.065244846
244	0x3bf1892e	0.0073710894
245	0x3cf82328	0.030290201
246	0x3da0a63d	0.078442074
247	0xbdee4b92	-0.11635508
248	0xbddfb2c8	-0.10922772
249	0xbd012a9e	-0.031534784
250	0x3d495e69	0.049162302
251	0x3df56da5	0.11983804
252	0x3e03a11b	0.12854426
253	0x3db48491	0.088143475
254	0x3e534213	0.20630674
255	0x3a890daf	0.0010456349

fc_layers.0.bias f4 [256]
0	0x3cb71b16	0.022351783
1	0x3b6be08f	0.0035992002
2	0x3aac413c	0.0013142
3	0x3c587962	0.013212534
4	0x3ae6d127	0.001760994
5	0x00000000	0.0
6	0x3c3fc539	0.011704736
7	0x00000000	0.0
8	0xba918313	-0.0011101685
9	0xbc4f5e3b	-0.012656744
10	0x3b9b937f	0.0047478075
11	0x00000000	0.0
12	0x3cef2d2c	0.029196344
13	0x3a80946f	0.0009809862
14	0xbc15ac72	-0.009135352
15	0x3bf42b3a	0.007451442
16	0x3bce7f10	0.006301768
17	0x3ba35f25	0.0049857073
18	0x00000000	0.0
19	0x3b46dc24	0.0030343616
20	0x3bbec9b9	0.005822387
21	0x3c4c6821	0.012475998
22	0x3c839e0d	0.016066575
23	0xba1ba323	-0.000593709
24	0xbb00c2cb	-0.0019647356
25	0x3c8a5952	0.016888294
26	0x3c4c213c	0.012459096
27	0xbac24f37	-0.0014824633
28	0xbbf1e200	-0.0073816776
29	0xbc6682ba	-0.014069254
30	0xbbf4d8ef	-0.0074721496
31	0x3b872be2	0.0041251043
32	0x3b3a7526	0.0028451174
33	0x3bef038b	0.0072941235
34	0x3c8af6c7	0.016963376
35	0xbb70d4f2	-0.003674802
36	0xbb57bf5e	-0.003292046
37	0xba3666ac	-0.00069580483
38	0xbbc7f69a	-0.0061023952
39	0x3bd2a47e	0.0064283004
40	0xbb45b649	-0.0030168465
41	0xbc73e00c	-0.01488496
42	0x00000000	0.0
43	0x3c3daef0	0.011577353
44	0xbba70137	-0.0050965804
45	0x00000000	0.0
46	0x3c8621f9	0.016373621
47	0x3d12a3b5	0.035800654
48	0x3ce6b9b8	0.02816473
49	0x3b7cd619	0.003857976
50	0xbb90dca9	-0.004420836
51	0xb924810f	-0.00015688337
52	0xbab314ba	-0.0013662793
53	0xbb649819	-0.0034880696
54	0x3d3ed061	0.046585444
55	0x3aed2c23	0.0018094819
56	0x3b5c0540	0.0033572465
57	0xbbda27ee	-0.006657592
58	0xbc8e12a1	-0.017342867
59	0xba71e8d8	-0.0009228117
60	0x3c64dfac	0.013969343
61	0xbbb7911e	-0.005602016
62	0xbaa37bd5	-0.0012472818
63	0x3d0885b4	0.033330634
64	0x3d29c33a	0.04144595
65	0x3c21b2a5	0.009869252
66	0x3b975fa0	0.0046195537
67	0x3ca8cdc9	0.020605939
68	0xbb8dd083	-0.004327835
69	0x3d165b7a	0.036708333
70	0x00000000	0.0
71	0x3ac2afb8	0.0014853394
72	0x3c13fb3b	0.009032066
73	0xbc167e46	-0.009185379
74	0x3c9aee85	0.018912563
75	0x3c5eab0f	0.013590588
76	0x3ca626cb	0.02028217
77	0x00000000	0.0
78	0xbbdfbf7f	-0.006828248
79	0xbb9c2ce8	-0.0047660954
80	0x3c69bd21	0.014266283
81	0x3cb20786	0.021732103
82	0x3c11be57	0.008895478
83	0x3d389db3	0.04507227
84	0x00000000	0.0
85	0xbc0ac3d9	-0.008469545
86	0xbbdce0ba	-0.0067406567
87	0x3bc19677	0.0059078294
88	0xbb4c8880	-0.003120929
89	0x3cfb7a56	0.030697983
90	0x3a649637	0.00087198935
91	0x00000000	0.0
92	0x3d5cb170	0.053880155
93	0x3dcfd2a6	0.101476
94	0xba8b0700	-0.0010606945
95	0xbc596853	-0.013269502
96	0xbb2dfa31	-0.002654683
97	0x3cbdeb23	0.023183411
98	0x3c8404fd	0.01611566
99	0xbc1e82c8	-0.009674735
100	0x3cc34b7e	0.023839708
101	0x3cd50368	0.0260026
102	0xbc6367a9	-0.013879695
103	0xba6870b9	-0.00088668946
104	0xbabfc9c2	-0.0014632272
105	0x3ac43309	0.0014968823
106	0x3c07e6f0	0.008294806
107	0x3d6c3c78	0.057674855
108	0xbbeada68	-0.0071671493
109	0x3ca1b6ff	0.01974058
110	0xbae85eb6	-0.0017728421
111	0x3ca6ee22	0.020377222
112	0xbb228ba8	-0.002480248
113	0x3d398a77	0.045298066
114	0x3ba401c6	0.005005094
115	0x3d263695	0.040579397
116	0xbc6b2cf4	-0.014353979
117	0x3ad710fd	0.0016408261
118	0x3b39d5ad	0.002835612
119	0xbc4af303	-0.01238704
120	0xbbcd1def	-0.006259672
121	0xba9a8076	-0.0011787552
122	0x3c71005d	0.014709559
123	0xbb0cc905	-0.0021482122
124	0x3b507726	0.00318093
125	0x3a62e4f5	0.0008655333
126	0x3baee85e	0.005337759
127	0xbaa7731e	-0.0012775396
128	0x3c05eaa3	0.008173618
129	0xbb289768	-0.002572501
130	0x3c2f543f	0.010701238
131	0x3c8d2059	0.017227339
132	0xbc089944	-0.008337323
133	0xbc1527e6	-0.009103751
134	0xbc0d8570	-0.008637771
135	0x3c188422	0.009308847
136	0xba92f8c1	-0.001121305
137	0x3ca5fb31	0.020261379
138	0x3bba0477	0.005676802
139	0x3b39631b	0.0028287831
140	0xba277e94	-0.0006389406
141	0x3c2da866	0.010599231
142	0x3cc5b434	0.02413378
143	0x3b01f306	0.001982869
144	0x3c3546b4	0.01106422
145	0x00000000	0.0
146	0xbb4806c7	-0.0030521618
147	0x00000000	0.0
148	0x00000000	0.0
149	0xbb8b8695	-0.004257987
150	0x3c15ca92	0.009142535
151	0xbb3ffaef	-0.0029293855
152	0xbb47d4fe	-0.0030491943
153	0x3b6912d7	0.0035564208
154	0x3c7975bf	0.015225827
155	0x3c45d138	0.012073807
156	0x3ad05da2	0.0015897045
157	0x3be225da	0.006901485
158	0x3c392237	0.011299661
159	0xbc16a8ef	-0.00919555
160	0x00000000	0.0
161	0xbb46643a	-0.0030272142
162	0x3d09190d	0.033471156
163	0x3c9e2cb5	0.019308427
164	0x3c94de83	0.018172508
165	0x3b450d57	0.0030067766
166	0xbc80fc47	-0.015745295
167	0xbc2bd4b0	-0.01048772
168	0x3ca4dc60	0.020124614
169	0xbc6f0459	-0.014588439
170	0xbc65ff03	-0.01403785
171	0x3cb3641b	0.02189832
172	0x00000000	0.0
173	0x37dd0580	2.6347814e-05
174	0x3aa2430f	0.0012379604
175	0x3b731a6f	0.0037094613
176	0xbb9763c2	-0.0046200464
177	0xbb91159b	-0.0044276244
178	0x3a9c0172	0.0011902286
179	0x3c8eb00d	0.017417932
180	0x3ba715ba	0.0050990256
181	0xbc353aa7	-0.011061347
182	0xbba08014	-0.0048980806
183	0x3ca95d79	0.020674454
184	0x3c927ba6	0.017881226
185	0x3a6b6b63	0.00089805404
186	0xbbf471ab	-0.0074598393
187	0x3c831c3c	0.016004674
188	0x3ceb579d	0.0287283
189	0x3b1a6c7a	0.0023563192
190	0x00000000	0.0
191	0x3b1731c8	0.0023070443
192	0x3a4c3923	0.00077904965
193	0xbc2824c0	-0.010262668
194	0x3d1b18a9	0.037865315
195	0x3caa3e76	0.020781737
196	0xbc1472ef	-0.009060605
197	0xbc3412ce	-0.0109908115
198	0xba25ad1c	-0.0006320046
199	0x00000000	0.0
200	0xbb4fec7e	-0.0031726654
201	0x3ba9e705	0.0051850104
202	0x3a88b9ef	0.0010431389
203	0xbb3f01bc	-0.002914532
204	0xbaf587d2	-0.0018732494
205	0x3d5ac55c	0.053410873
206	0xbbce39ae	-0.006293497
207	0xbc04110a	-0.008060703
208	0x3c41b960	0.011823982
209	0xb9be7b82	-0.00036331645
210	0xbb4c96ec	-0.0031217886
211	0x3c89bc3a	0.016813386
212	0x3c2ae0ef	0.010429605
213	0x3b9075d3	0.004408577
214	0x3b3c2d20	0.002871342
215	0x3b4db69f	0.0031389368
216	0x3cbc5b2b	0.022992691
217	0x3c45af31	0.012065695
218	0xba29d2ba	-0.0006478239
219	0x3cd4ad76	0.025961619
220	0x3c4380ac	0.011932533
221	0x3be01179	0.0068380204
222	0xba3b383f	-0.0007141865
223	0xbb4d7d0c	-0.0031355051
224	0xbc220ed1	-0.009891228
225	0x00000000	0.0
226	0x3b657fba	0.0035018758
227	0xbbc4cd05	-0.0060058855
228	0xbb07d4c6	-0.0020726188
229	0xbb92190b	-0.0044585518
230	0x3b9b0dc8	0.0047318675
231	0xbc1e5485	-0.009663706
232	0x3a3884bc	0.0007038822
233	0x3c49e091	0.012321607
234	0x3c6f1035	0.014591266
235	0x3d09af98	0.033614725
236	0x3ae8b6a2	0.0017754624
237	0x3ab1a94d	0.0013554484
238	0xbc3f2d44	-0.011668507
239	0x3ca07247	0.019585742
240	0x3bbf02f7	0.005829211
241	0x3b07d2bc	0.0020724973
242	0xbc3bef81	-0.011470676
243	0x3cb5e7d3	0.022205269
244	0xbbcc2d9e	-0.006231024
245	0xbb8c740f	-0.004286296
246	0xbc09cbce	-0.008410407
247	0x3d0b4122	0.033997662
248	0x3bf8ff54	0.007598797
249	0x3b801702	0.0039089927
250	0x3b7a28b1	0.0038171227
251	0xbac53cb9	-0.0015048004
252	0x00000000	0.0
253	0xbbe8937a	-0.0070976587
254	0x3c4113e7	0.01178453
255	0xbc0758f7	-0.008260957

fc_layers.2.weight f4 [256, 256]
0	0xbe01ea7d	-0.12687106
1	0x3ce1e838	0.02757655
2	0x3d9c5933	0.07634201
3	0x3d1f0e79	0.03883216
4	0xbd11475a	-0.035468437
5	0x3dc895f5	0.09794227
6	0xbd30ec9c	-0.0431944
7	0x3dcbf013	0.099579
8	0x3acee0a4	0.0015783501
9	0x3d9cae2e	0.0765041
10	0x3d3534a6	0.044239663
11	0x3d329432	0.04359836
12	0xbc388d0b	-0.011264096
13	0x3d61c687	0.05512097
14	0xbd92f583	-0.07175734
15	0x3d05401e	0.03253185
16	0xbd1d47d8	-0.038398594
17	0x3d87b854	0.06626955
18	0x3d883ccd	0.06652222
19	0xbdde0838	-0.10841411
20	0x3d920632	0.07130088
21	0xbdefc26e	-0.117070064
22	0xbcc09310	-0.023507625
23	0x3da240bb	0.079225026
24	0xbc84260a	-0.01613142
25	0xbc29f493	-0.010373252
26	0x3cc69771	0.024242135
27	0x3dce9180	0.10086346
28	0x3d119fd5	0.03555282
29	0x3be9ea86	0.007138553
30	0xbdc9679d	-0.09834216
31	0x3d8e7b4a	0.06957109
32	0xba7acce8	-0.00095672766
33	0x3b2d696a	0.0026460537
34	0xbe0a916f	-0.13532041
35	0xbda2d7a0	-0.079512835
36	0x3c497ac7	0.012297339
37	0xbd8afa04	-0.06785968
38	0xbd11f13b	-0.035630446
39	0x3cb2cf7d	0.021827454
40	0xbda4955f	-0.08036303
41	0xbdae1caa	-0.08501561
42	0xbcba0074	-0.022705294
43	0xbd6e317d	-0.058152664
44	0xbdcfe9e3	-0.10152032
45	0x3c331738	0.010930829
46	0x3c92f45c	0.017938785
47	0xbc8dd17a	-0.0173118
48	0x3d90ac71	0.070641406
49	0x3d7d5a88	0.061853915
50	0x3c9edd97	0.019392772
51	0xbdd7a0db	-0.105287276
52	0xbde38db5	-0.11111013
53	0x3d99b700	0.075056076
54	0x3d0bf488	0.03416875
55	0x3d74ef61	0.059798602
56	0xbd82a84d	-0.06379757
57	0x3b1186bb	0.002220555
58	0x3dca2085	0.09869484
59	0x3d2e3d1b	0.042538743
60	0xbc674d83	-0.014117601
61	0x3e002a66	0.12516174
62	0xbd898eb2	-0.0671667
63	0x3d47c3db	0.048770767
64	0x3d550952	0.05201084
65	0x3d0b96ca	0.03407935
66	0xbdc940ae	-0.0982679
67	0x3c7748e1	0.015093059
68	0x3d0f1776	0.034934483
69	0x3c08e9ae	0.008356495
70	0xbca52a10	-0.020161659
71	0xbe043a67	-0.12912904
72	0xbcdaaba9	-0.026693182
73	0x3d57fa21	0.052728776
74	0xbd767292	-0.060167857
75	0xbb2b1c7e	-0.0026109512
76	0xbdcd8018	-0.100341976
77	0x3d81fbed	0.06346879
78	0xbdaca7cb	-0.084304415
79	0x3cab6372	0.020921443
80	0x3d3a0a88	0.0454202
81	0xbd129d79	-0.03579471
82	0x3cab3103	0.020897394
83	0xbcfd23af	-0.030900804
84	0xbd266b28	-0.040629536
85	0x3c4bdff9	0.012443536
86	0xbb299156	-0.002587398
87	0xbd420327	-0.047366288
88	0xbddbfb28	-0.10741264
89	0xbcef7a8e	-0.029233243
90	0x3c999e0f	0.018752126
91	0xbc9f4618	-0.019442603
92	0x3cb87adf	0.022519527
93	0x3d216987	0.03940728
94	0xba9f49ca	-0.0012152728
95	0xbd827754	-0.06370416
96	0xbdbeb5fd	-0.09312055
97	0xbb63d5f1	-0.003476497
98	0xbd59d84f	-0.053184804
99	0xbe00f247	-0.12592421
100	0x39add4c0	0.00033155642
101	0xbc7cc35a	-0.015427435
102	0xbd9ec090	-0.07751572
103	0xbc1795a9	-0.00925199
104	0xbcc3c404	-0.023897178
105	0xbda4c653	-0.0804564
106	0xbd95ec85	-0.07320503
107	0x3d075950	0.03304416
108	0xbddcf7d7	-0.10789459
109	0xbdb781c0	-0.08960295
110	0xbcddb07f	-0.027061699
111	0xbdc2556d	-0.0948895
112	0x3d84eef5	0.0649089
113	0x3d145a3c	0.036218867
114	0xbe12d2c9	-0.1433822
115	0x3d6d9d12	0.058011122
116	0xbd462783	-0.048377525
117	0xbd4ea00d	-0.050445605
118	0xbda98f2c	-0.08279261
119	0x3d924cd8	0.07143563
120	0x3ca1acb4	0.019735672
121	0x3d5a41a6	0.053285263
122	0xbdabe0d7	-0.08392494
123	0x3d24082e	0.040046863
124	0x3db48562	0.08814503
125	0xbe003d05	-0.12523277
126	0x3db7df5c	0.08978149
127	0x3c14f094	0.009090561
128	0x3c9970bb	0.018730512
129	0xbd687e05	-0.056760807
130	0x3da49a3c	0.0803723
131	0xbd9a07b1	-0.07520998
132	0xba4885fa	-0.00076493586
133	0xbd12f5c9	-0.03587893
134	0x3d9714c8	0.073770106
135	0xbb6d8233	-0.0036240935
136	0xbdb50429	-0.08838684
137	0xbdfd540b	-0.123695455
138	0x3dcbed47	0.099573664
139	0xbde3ab7c	-0.111166924
140	0xbdd04666	-0.101696774
141	0xbd3b90f7	-0.045792546
142	0xbc391287	-0.011295921
143	0x3c58ae39	0.013225132
144	0x3ba6f5d5	0.0050952234
145	0x3d9c8657	0.07642811
146	0x3e0338da	0.12814656
147	0x3db7bba3	0.08971336
148	0x3ce7f694	0.02831582
149	0xbd0f7d51	-0.03503162
150	0xbd77f25f	-0.060533877
151	0xbcae2a2d	-0.021260345
152	0xbca64f60	-0.02030152
153	0x3d81ab86	0.063315436
154	0xbae0cfd3	-0.001715178
155	0x3cbfe298	0.023423478
156	0xbda82581	-0.08210278
157	0xbd391a82	-0.045191295
158	0x3dbca399	0.09210891
159	0xbde61736	-0.11234896
160	0x3d4a563a	0.04939864
161	0x3b951013	0.0045490353
162	0x3d93641c	0.07196829
163	0x3bc2641d	0.0059323446
164	0x3d558bc1	0.052135233
165	0xbda65abe	-0.081227764
166	0x3d8b2641	0.06794406
167	0xbdb0f6f2	-0.08640851
168	0x3de3890e	0.111101255
169	0x3d88e415	0.06684128
170	0x3bec2a04	0.007207157
171	0xbe00ef29	-0.12591232
172	0xbd2b37ee	-0.041801386
173	0x3bb2b1bd	0.005453317
174	0x3d07cbe7	0.03315344
175	0x3d05fad8	0.032709926
176	0x3dde42ad	0.10852561
177	0xbc16fd01	-0.009215594
178	0xbc834621	-0.016024651
179	0xbd81fbb5	-0.063468374
180	0x3d05f00a	0.032699622
181	0x3dd91c5e	0.10601114
182	0x3da84ff9	0.082183786
183	0x3d2e354b	0.042531293
184	0x3d5115a9	0.051046047
185	0xbd3d2ab5	-0.046183307
186	0xbdad6df4	-0.084682375
187	0x3d7c86c7	0.06165197
188	0x3d3235fb	0.04350851
189	0xbdae7054	-0.08517519
190	0xbd9252ac	-0.07144675
191	0x3d9ad7f5	0.07560722
192	0x3cdd2a13	0.026997602
193	0x3d942dfd	0.07235334
194	0xbe081824	-0.13290459
195	0x3d877c35	0.066154875
196	0x3ccbb65f	0.024867235
197	0xbcfd7a6b	-0.030942162
198	0x3d796dc9	0.060895715
199	0x3ca93bc4	0.020658381
200	0x3d0fbe3a	0.035093524
201	0x3cee3b14	0.029080905
202	0x3dc26a2b	0.09492906
203	0x3cedd8a7	0.029033972
204	0x3d797f08	0.060912162
205	0xbdb2a423	-0.08722713
206	0xb9dd1a00	-0.00042171776
207	0x3ca4e268	0.02012749
208	0xba473460	-0.0007599052
209	0xbdcbdd5a	-0.09954329
210	0x3d19be88	0.03753522
211	0x3d97f0a8	0.074189484
212	0x3d31c7ca	0.043403424
213	0xbd4e3a5b	-0.05034862
214	0xbdb17762	-0.086653486
215	0xbdbfb0a7	-0.09359866
216	0x3da0935a	0.07840605
217	0xbd9237fe	-0.07139586
218	0xbc476590	-0.0121702105
219	0xbdb80284	-0.08984855
220	0x3da49e26	0.08037977
221	0xbd3ab1ac	-0.045579597
222	0x3c19bf9c	0.009384062
223	0x3d0e788a	0.034782924
224	0x3d925890	0.07145798
225	0xbd6aa6ac	-0.057287857
226	0x3d0537e1	0.032523993
227	0xbd3cb0f7	-0.046067204
228	0x3c35a53f	0.011086761
229	0x3d8a1813	0.06742873
230	0xbcbd574e	-0.02311292
231	0xbdc79a2a	-0.09746201
232	0x3dddcddb	0.108302794
233	0x3d6e6349	0.058200154
234	0x3d631ce4	0.055447474
235	0x3d1bf79c	0.038077936
236	0x3b26d732	0.0025457856
237	0xbcaad544	-0.020853646
238	0x3d21735a	0.03941665
239	0xbd0e5fe6	-0.034759425
240	0xbd8481d2	-0.06470074
241	0x3c98eaa2	0.01866657
242	0x3d8d0f69	0.06887705
243	0x39ba25db	0.0003550489
244	0xbdff166e	-0.1245545
245	0xbd169423	-0.036762368
246	0xbd20008d	-0.039063025
247	0x3c42b07d	0.011882898
248	0xbdf52b10	-0.11971104
249	0x3dc02fd8	0.093841255
250	0xbd005562	-0.031331427
251	0xbd5c1b83	-0.053737175
252	0x3d10c376	0.035342656
253	0x3beedb3d	0.007289319
254	0xbd9ed5c7	-0.077556185
255	0xbddfde91	-0.10931123
